…
· Embedding dimension: d_model = 64
· Attention heads: h = 8 (query heads)
· Key-Value heads: h/G = 2 (with G = 4 grouping factor)
· Head dimension: d_head = 8
· Feed-forward dimension: d_ff = 256
· Activation: GELU
· Dropout: 0.1
· Positional encoding: RoPE (sinusoidal with base 10000)

B.1.3 TCN Head

Block Kernel Dilation Filters Receptive Field
1 3 1 32 3 samples (6 ms)
2 3 2 32 9 samples (18 ms)
3 3 4 32 21 samples (42 ms)
Global AvgPool - - - -
FC - - N_class -

Parameter Count: ~75,000 (25k MK-CNN + 30k Transformer + 20k TCN)

---

B.2 EEG-Inception ErrP Detector

Stage Operation Output Shape Parameters
Input - (8, 300, 1) 8 frontocentral ch × 600 ms
Inception Branch 1 Conv2D(1×25, 16) (8, 300, 16) 416
Inception Branch 2 Conv2D(1×50, 16) (8, 300, 16) 816
Inception Branch 3 Conv2D(1×100, 16) (8, 300, 16) 1616
Concatenate - (8, 300, 48) -
DepthwiseConv2D (8, 1) (1, 300, 48) 384
BatchNorm + ELU - (1, 300, 48) -
AvgPool2D (1, 4) (1, 75, 48) -
SeparableConv2D (1, 16) (1, 60, 64) 2,368
BatchNorm + ELU - (1, 60, 64) -
AvgPool2D (1, 6) (1, 10, 64) -
Flatten - 640 -
FC1 640 → 32 32 20,512
ELU + Dropout(0.5) - 32 -
FC2 32 → 1 1 33
Sigmoid - 1 -

Total Parameters: ~42,000

---

B.3 Dual-Decoder with GradReb Fusion

Encoder Specifications:

· EEG Encoder: 2-layer MLP, 528 → 256 → 128 (d_e = 128)
· fNIRS Encoder: 1-layer MLP, 4 → 32 (d_f = 32)

Cross-Attention (Query Decoder):

· Query: from EEG encoder (dim 128), projected to d_attn = 64
· Key/Value: from fNIRS encoder (dim 32), projected to d_attn = 64
…
